Net(UDnCNN(
  (mse): MSELoss()
  (conv): ModuleList(
    (0): Conv2d(3, 64, kernel_size=(3, 3), stride=(1, 1), padding=(1, 1))
    (1): Conv2d(64, 64, kernel_size=(3, 3), stride=(1, 1), padding=(1, 1))
    (2): Conv2d(64, 64, kernel_size=(3, 3), stride=(1, 1), padding=(1, 1))
    (3): Conv2d(64, 64, kernel_size=(3, 3), stride=(1, 1), padding=(1, 1))
    (4): Conv2d(64, 64, kernel_size=(3, 3), stride=(1, 1), padding=(1, 1))
    (5): Conv2d(64, 64, kernel_size=(3, 3), stride=(1, 1), padding=(1, 1))
    (6): Conv2d(64, 64, kernel_size=(3, 3), stride=(1, 1), padding=(1, 1))
    (7): Conv2d(64, 64, kernel_size=(3, 3), stride=(1, 1), padding=(1, 1))
    (8): Conv2d(64, 64, kernel_size=(3, 3), stride=(1, 1), padding=(1, 1))
    (9): Conv2d(64, 64, kernel_size=(3, 3), stride=(1, 1), padding=(1, 1))
    (10): Conv2d(64, 64, kernel_size=(3, 3), stride=(1, 1), padding=(1, 1))
    (11): Conv2d(64, 64, kernel_size=(3, 3), stride=(1, 1), padding=(1, 1))
    (12): Conv2d(64, 64, kernel_size=(3, 3), stride=(1, 1), padding=(1, 1))
    (13): Conv2d(64, 64, kernel_size=(3, 3), stride=(1, 1), padding=(1, 1))
    (14): Conv2d(64, 64, kernel_size=(3, 3), stride=(1, 1), padding=(1, 1))
    (15): Conv2d(64, 64, kernel_size=(3, 3), stride=(1, 1), padding=(1, 1))
    (16): Conv2d(64, 64, kernel_size=(3, 3), stride=(1, 1), padding=(1, 1))
    (17): Conv2d(64, 3, kernel_size=(3, 3), stride=(1, 1), padding=(1, 1))
  )
  (bn): ModuleList(
    (0): BatchNorm2d(64, eps=64, momentum=0.1, affine=True, track_running_stats=True)
    (1): BatchNorm2d(64, eps=64, momentum=0.1, affine=True, track_running_stats=True)
    (2): BatchNorm2d(64, eps=64, momentum=0.1, affine=True, track_running_stats=True)
    (3): BatchNorm2d(64, eps=64, momentum=0.1, affine=True, track_running_stats=True)
    (4): BatchNorm2d(64, eps=64, momentum=0.1, affine=True, track_running_stats=True)
    (5): BatchNorm2d(64, eps=64, momentum=0.1, affine=True, track_running_stats=True)
    (6): BatchNorm2d(64, eps=64, momentum=0.1, affine=True, track_running_stats=True)
    (7): BatchNorm2d(64, eps=64, momentum=0.1, affine=True, track_running_stats=True)
    (8): BatchNorm2d(64, eps=64, momentum=0.1, affine=True, track_running_stats=True)
    (9): BatchNorm2d(64, eps=64, momentum=0.1, affine=True, track_running_stats=True)
    (10): BatchNorm2d(64, eps=64, momentum=0.1, affine=True, track_running_stats=True)
    (11): BatchNorm2d(64, eps=64, momentum=0.1, affine=True, track_running_stats=True)
    (12): BatchNorm2d(64, eps=64, momentum=0.1, affine=True, track_running_stats=True)
    (13): BatchNorm2d(64, eps=64, momentum=0.1, affine=True, track_running_stats=True)
    (14): BatchNorm2d(64, eps=64, momentum=0.1, affine=True, track_running_stats=True)
    (15): BatchNorm2d(64, eps=64, momentum=0.1, affine=True, track_running_stats=True)
  )
))
TrainSet(NoisyBSDSDataset(mode=train, image_size=(180, 180)))
ValSet(NoisyBSDSDataset(mode=test, image_size=(320, 320)))
Optimizer(Adam (
Parameter Group 0
    amsgrad: False
    betas: (0.9, 0.999)
    eps: 1e-08
    lr: 1e-08
    maximize: False
    weight_decay: 0
))
StatsManager(DenoisingStatsManager)
BatchSize(4)
PerformValidationDuringTraining(True)
…
